Found 3468 images belonging to 21 classes.
Found 378 images belonging to 21 classes.








Model: "sequential"
_________________________________________________________________
Layer (type)                 Output Shape              Param #   
=================================================================
conv0 (Conv2D)               (None, 256, 256, 32)      896       
_________________________________________________________________
relu0 (Activation)           (None, 256, 256, 32)      0         
_________________________________________________________________
pooling0 (MaxPooling2D)      (None, 128, 128, 32)      0         
_________________________________________________________________
conv1 (Conv2D)               (None, 128, 128, 64)      18496     
_________________________________________________________________
relu1 (Activation)           (None, 128, 128, 64)      0         
_________________________________________________________________
pooling1 (MaxPooling2D)      (None, 64, 64, 64)        0         
_________________________________________________________________
conv2 (Conv2D)               (None, 64, 64, 128)       73856     
_________________________________________________________________
batchnorm2 (BatchNormalizati (None, 64, 64, 128)       512       
_________________________________________________________________
relu2 (Activation)           (None, 64, 64, 128)       0         
_________________________________________________________________
conv3 (Conv2D)               (None, 64, 64, 128)       147584    
_________________________________________________________________
relu3 (Activation)           (None, 64, 64, 128)       0         
_________________________________________________________________
zero_padding2d (ZeroPadding2 (None, 64, 66, 128)       0         
_________________________________________________________________
pooling2 (MaxPooling2D)      (None, 32, 65, 128)       0         
_________________________________________________________________
conv4 (Conv2D)               (None, 32, 65, 256)       295168    
_________________________________________________________________
batchnorm4 (BatchNormalizati (None, 32, 65, 256)       1024      
_________________________________________________________________
relu4 (Activation)           (None, 32, 65, 256)       0         
_________________________________________________________________
conv5 (Conv2D)               (None, 32, 65, 256)       590080    
_________________________________________________________________
relu5 (Activation)           (None, 32, 65, 256)       0         
_________________________________________________________________
zero_padding2d_1 (ZeroPaddin (None, 32, 67, 256)       0         
_________________________________________________________________
pooling3 (MaxPooling2D)      (None, 16, 66, 256)       0         
_________________________________________________________________
reshape (Reshape)            (None, None, 256)         0         
_________________________________________________________________
bidirectional (Bidirectional (None, None, 128)         164352    
_________________________________________________________________
time_distributed (TimeDistri (None, None, 64)          8256      
…
